best_tcn_model.pth (torch, 48669 bytes, 35 tensors)

tcn.network.0.conv1.weight f4 [16, 1, 5]
0	0xbeea8ab5	-0.4580895
1	0x3cbb03f0	0.022829026
2	0xbe8fd760	-0.28094006
3	0xbcdec353	-0.027192747
4	0x3db69ca5	0.08916596
5	0x3e9b1d6e	0.3029589
6	0xbebae0aa	-0.3649953
7	0x3e089048	0.13336289
8	0xbeb77e1e	-0.35838407
9	0x3e967335	0.2938477
10	0x3e7b349d	0.24531789
11	0x3ea2ab86	0.31771487
12	0x3ede5bbc	0.43429363
13	0x3d88f8b7	0.066880636
14	0xbed54f1e	-0.41661924
15	0xbe8d0622	-0.2754374
16	0xbd82e69a	-0.0639164
17	0xbd05e4fe	-0.032689087
18	0xbd3de3a7	-0.046359684
19	0xbe8ade85	-0.27122894
20	0x3dfe2f9f	0.12411427
21	0xbed61fe0	-0.41821194
22	0x3e080388	0.13282597
23	0xbea378c0	-0.31928062
24	0x3ecb731f	0.39736268
25	0x3eb51048	0.35363984
26	0x3eab1e3a	0.334215
27	0x3e3f4d80	0.18681908
28	0xbeaf06da	-0.34184915
29	0xbefb8a89	-0.4912913
30	0xbdbe497b	-0.09291359
31	0x3e74f8f9	0.239231
32	0xbd6b5f00	-0.057463646
33	0x3cd67302	0.026177887
34	0x3e807c6d	0.2509493
35	0x3eb822ac	0.35963953
36	0x3e1a10b7	0.15045439
37	0x3e8729f3	0.26399192
38	0x3e188d22	0.14897588
39	0xbeba9f32	-0.3644958
40	0x3eabb8eb	0.3353952
41	0x3d822960	0.06355548
42	0x3ebc1b13	0.36739406
43	0x3ecaed1e	0.3963403
44	0xbe05b4cb	-0.13057248
45	0xbeac6368	-0.3366959
46	0x3eca5c13	0.39523372
47	0x3ea03ae2	0.31294924
48	0xbe8a7005	-0.2703859
49	0x3e6bd954	0.23032123
50	0xbd3598ec	-0.04433529
51	0x3d7c9cc6	0.06167295
52	0x3da4faa8	0.080556214
53	0x3ebbbe4b	0.3666862
54	0xbebe596c	-0.37177598
55	0x3ec47e92	0.38377815
56	0x3cac1286	0.021004926
57	0x3d014fb3	0.031570148
58	0xbe9d4710	-0.3071828
59	0xbe8052bb	-0.25063118
60	0xbebb2f37	-0.3655946
61	0x3e100a01	0.14066316
62	0x3ec951fd	0.39320365
63	0x3eb4d247	0.3531668
64	0x3ed1145f	0.40835854
65	0xbea02d55	-0.31284586
66	0x3e3d9c0b	0.18516557
67	0xbe7ec967	-0.24881516
68	0xbe201964	-0.15634686
69	0xbe48cb92	-0.19608906
70	0xbe3a828b	-0.1821386
71	0x3dcf712a	0.10129006
72	0x3dd64d7d	0.104639985
73	0x3ec4f49a	0.38467866
74	0xbe4c74d1	-0.19966437
75	0xbe0ee720	-0.13955355
76	0xbe4ef904	-0.2021218
77	0xbefe38b8	-0.49652648
78	0x3e529f12	0.20568493
79	0x3ed5bb11	0.41744283

tcn.network.0.conv1.bias f4 [16]
0	0xbed2b8d6	-0.41156644
1	0x3dafc662	0.085827604
2	0xbea1f9a7	-0.31635782
3	0xbeb7f5f9	-0.3592985
4	0x3e120d77	0.14262949
5	0xbe9a788e	-0.301701
6	0xbe0e0d4c	-0.1387226
7	0xbec8ea0a	-0.39241058
8	0xbe03fa26	-0.12888393
9	0xbec4e2e1	-0.38454345
10	0xbe37a839	-0.17935266
11	0x3d43b372	0.047778554
12	0xbdc8ce1e	-0.09804939
13	0xbeb36cfa	-0.3504408
14	0xbeb7e87d	-0.35919562
15	0xbe85f2dd	-0.26161852

tcn.network.0.conv2.weight f4 [16, 16, 5]
0	0x3d6982ee	0.05700963
1	0x3ddbcdc1	0.10732604
2	0xbd85a78a	-0.06526096
3	0xbd04fe29	-0.03246895
4	0xbd8365fc	-0.06415936
5	0xbce27d5f	-0.027647672
6	0x3d4232ac	0.047411606
7	0xbd80ea12	-0.06294645
8	0x3dc5eb6a	0.09664042
9	0xbd4e090c	-0.050301597
10	0x3ca7d5d4	0.020487703
11	0xbdb713f1	-0.089393504
12	0xbde1b169	-0.110201664
13	0x3caf8686	0.02142645
14	0xbdd38c1a	-0.103294566
15	0xbd72adab	-0.059247654
16	0x3cc378d7	0.023861332
17	0x3cc33e21	0.023833336
18	0xbe6c90f8	-0.23102176
19	0xbdb2f887	-0.08738809
20	0x3d3fd17f	0.04683065
21	0x3d2da476	0.04239317
22	0xbd677a62	-0.056513198
23	0x3d056fa5	0.032577176
24	0xbdb39d71	-0.08770264
25	0xbc8e4038	-0.017364606
26	0xbd993cf4	-0.07482329
27	0xbd8ed178	-0.06973547
28	0xbc54d814	-0.01299097
29	0xbd17b5bd	-0.037038554
30	0x3c1349ff	0.00898981
31	0xbcb00228	-0.021485403
32	0xbb848b2f	-0.0040449123
33	0xbc9b1fed	-0.018936122
34	0xbc6ca67a	-0.014443988
35	0xbd64b6c8	-0.055838376
36	0xbd9023bb	-0.07038065
37	0xbe004405	-0.12525947
38	0x3d29cabc	0.04145311
39	0xbdcb0048	-0.09912163
40	0x3ce0d9cc	0.027447604
41	0x3defc8f5	0.117082514
42	0x3d80b5b0	0.06284654
43	0xbdc5e94f	-0.09663641
44	0xbd9e0201	-0.07715226
45	0xbcf05742	-0.029338483
46	0xbd83a85b	-0.06428596
47	0x3d0588b7	0.032601085
48	0x3db7a1b5	0.0896639
49	0xbb83a086	-0.0040169386
50	0xbc53e460	-0.012932867
51	0xbdc9c14a	-0.0985132
52	0x3d7e9b1f	0.062159654
53	0x3d970f8f	0.073760144
54	0x3dd56860	0.104202986
55	0x3dae8941	0.08522273
56	0x3cccb024	0.024986334
57	0xbe06c50a	-0.13161102
58	0xbb2bf3aa	-0.0026237764
59	0xbe89062f	-0.2676253
60	0x3d4ff924	0.05077471
61	0xbbcdd87a	-0.0062819095
62	0x3db1dff2	0.08685292
63	0xbce8879d	-0.028384978
64	0x3e0a519d	0.13507695
65	0xbda5fb70	-0.081045985
66	0xbb84423c	-0.004036216
67	0xbe266a45	-0.16251476
68	0xbde53d01	-0.11193276
69	0xbdc9db30	-0.0985626
70	0x3d87a090	0.06622422
71	0xbdef8956	-0.116961166
72	0x3d970057	0.07373112
73	0x3db07b74	0.08617297
74	0xbde31156	-0.11087291
75	0xbbecef7f	-0.0072306986
76	0x3e0e5f34	0.13903505
77	0x3d3a3ea6	0.045469902
78	0xbdb4c342	-0.08826305
79	0xbc83e8d6	-0.016102236
80	0x3bdf06d6	0.006806235
81	0x3d47cf03	0.048781406
82	0x3d80ca6b	0.06288608
83	0x3c89c330	0.016816705
84	0x3d9b538a	0.07584293
85	0x3d2eab24	0.04264368
86	0xbde8ca82	-0.1136675
87	0xbdc01827	-0.09379607
88	0xbcddff77	-0.027099354
89	0xbd5199ad	-0.051171947
90	0x3dc77c2e	0.09740482
91	0xbd95f8a6	-0.073228166
92	0x3c43e4ea	0.011956433
93	0x3d6343f5	0.05548473
94	0x3d897784	0.06712249
95	0x3dfad141	0.12246943
96	0x3c1c7242	0.009548726
97	0xbc873c44	-0.01650823
98	0x3d7577c1	0.05992866
99	0x3e02d419	0.12776221
100	0xbdddc4af	-0.1082853
101	0xbd74bc23	-0.059749734
102	0x3d26231a	0.04056082
103	0xbdebec27	-0.11519652
104	0x3b5f2c5d	0.0034053542
105	0xbc791efe	-0.015205143
106	0xbd381cce	-0.044949345
107	0x3dca6e6e	0.09884344
108	0xbd50c28d	-0.050966788
109	0xbd6498ec	-0.0558099
110	0x3d89b77c	0.0672445
111	0x3d6fe19a	0.05856476
112	0xbd9da1e1	-0.076968916
113	0x3dcff6a2	0.10154463
114	0x3c405b2c	0.011740487
115	0x3db38755	0.08766047
116	0x3d86a7dc	0.065749854
117	0xbcfe0d5a	-0.031012226
118	0x3d3efeda	0.046629764
119	0xbcce0d45	-0.025152812
120	0xbddff165	-0.10934714
121	0x3d9c9415	0.07645432
122	0x3cf6170a	0.030040283
123	0xbc58c183	-0.013229731
124	0x3be33cbf	0.0069347317
125	0x3de80c82	0.11330511
126	0x3e0e614a	0.139043
127	0xbd0ef79c	-0.034904107
128	0x3d963943	0.073351406
129	0x3de2b0a1	0.110688455
130	0x3da3a152	0.07989754
131	0xbc819777	-0.015819294
132	0x3ccd28b8	0.02504383
133	0x3ba92c10	0.0051627234
134	0xbd9bf1f3	-0.076145075
135	0x3d09909a	0.03358517
136	0xbdb5888a	-0.088639334
137	0x3b188e52	0.002327819
138	0x3dfc70c6	0.12326197
139	0xbc367c43	-0.011138025
140	0x3d2d86fd	0.042365063
141	0x3d87ed9b	0.066371165
142	0x3d1b29b0	0.037881553
143	0xbb2fd8fa	-0.002683221
144	0xbd1f5223	-0.03889669
145	0x3bd3bedc	0.006461961
146	0xbc62addd	-0.013835398
147	0x3dfeaf78	0.12435812
148	0x3d489a75	0.048975427
149	0x3cf726e8	0.03016992
150	0x3aeaaec2	0.0017904865
151	0x3e04b46f	0.12959455
152	0x3d8562b1	0.065129645
153	0x3ccba49c	0.024858765
154	0xbd1e471e	-0.03864204
155	0xbcacc2ea	-0.021089036
156	0xbd801076	-0.0625314
157	0xbcd4ad2e	-0.025961485
158	0xbd018594	-0.03162153
159	0x3d76e4f3	0.060276937
160	0x3d4c0625	0.049810547
161	0xbc6bbead	-0.014388722
162	0xbdaae1d0	-0.083438516
163	0xbe300a23	-0.17191367
164	0xbde4c998	-0.111712635
165	0xbd89f355	-0.06735865
166	0x3c87efc1	0.016593816
167	0xbbf43c72	-0.0074534947
168	0x3e1a26a9	0.1505381
169	0xbe06196d	-0.13095637
170	0xbd7732a0	-0.060351014
171	0xbcb95c54	-0.022627033
172	0xbd24ff4f	-0.040282544
173	0xbd942da6	-0.07235269
174	0xbdc81e95	-0.09771458
175	0x3ce557c5	0.027995953
176	0x3d6b5f3d	0.057463873
177	0x3d455506	0.048176788
178	0x3ce81bab	0.028333506
179	0x3b824430	0.0039754137
180	0x3c4f86fa	0.012666458
181	0x3cfeec54	0.03111855
182	0xbc9ba0ab	-0.01899751
183	0x3c4764f3	0.012170064
184	0xbdbfd2df	-0.09366392
185	0x3cc9ae5f	0.02461928
186	0x3c884175	0.016632775
187	0x3d15597b	0.03646229
188	0xbd817e96	-0.063229725
189	0xbd3c33cb	-0.04594783
190	0x3c85f748	0.016353264
191	0x3c1fb135	0.009746839
192	0xbd812893	-0.06306567
193	0xbc777414	-0.015103359
194	0x3b4b9b6f	0.0031067987
195	0x3c387b19	0.0112598175
196	0xbdcf97f8	-0.101364076
197	0xbda2cc95	-0.07949177
198	0xbe144d03	-0.14482503
199	0xbdc0f8af	-0.09422433
200	0xbc071257	-0.008244119
201	0xbd1d8745	-0.03845908
202	0x3c15fe41	0.009154857
203	0xbcba01c8	-0.022705927
204	0x3d2f5349	0.042804036
205	0x3d67926f	0.056536134
206	0xbd501ad7	-0.050806846
207	0x3dd611f3	0.10452642
208	0x3dbfda4c	0.09367809
209	0x3c80e9a3	0.015736407
210	0xbd92f2cd	-0.07175217
211	0x3d2667a5	0.040626187
212	0xbc35b24b	-0.011089872
213	0xbdac1136	-0.0840172
214	0xbcbfc63a	-0.023409951
215	0x3ba1da1b	0.0049393303
216	0xbda76938	-0.08174366
217	0xbdb21b30	-0.08696592
218	0xbe03027f	-0.12793921
219	0x3ccc0017	0.024902387
220	0x3d6192fa	0.05507181
221	0xbd5ce485	-0.05392887
222	0xbc1c7810	-0.0095501095
223	0xbd416e25	-0.047224183
224	0x3e12159d	0.14266057
225	0x3d2eaaa5	0.042643208
226	0xbbff17b6	-0.007784809
227	0xbd053e03	-0.032529842
228	0xbd8814a8	-0.06644565
229	0x3cca9ba5	0.02473242
230	0xbe2c7466	-0.16841277
231	0xbd4a96f5	-0.04946037
232	0xbe0feb34	-0.14054567
233	0xbe233d9c	-0.15941471
234	0xbdfd6242	-0.12372257
235	0x3e0f789b	0.14010851
236	0xbbfdc48c	-0.0077443775
237	0xbe15097b	-0.14554398
238	0xbb8a81a1	-0.0042268788
239	0xbdd2a0a5	-0.10284547
240	0xbdab1952	-0.08354439
241	0xbcda2faa	-0.026634056
242	0xbd4c827c	-0.049929127
243	0x3cdd1733	0.026988601
244	0x3cbb24d5	0.022844711
245	0x3da74e5a	0.08169241
246	0xbd9033a1	-0.070410974
247	0x3db33150	0.0874964
248	0x3b673866	0.0035281419
249	0x3d4b192a	0.049584545
250	0x3b977d3e	0.0046230843
251	0x3dc41eaf	0.09576165
252	0x3dbd93ba	0.09256692
253	0x3dc1d345	0.094641246
254	0x3e074469	0.1320969
255	0xbc38d9bc	-0.011282381

tcn.network.0.conv2.bias f4 [16]
0	0xbc25423a	-0.01008659
1	0x3d240b83	0.04005004
2	0x3daff060	0.0859077
3	0xbd84fc44	-0.06493428
4	0xbd4904c6	-0.049076818
5	0x3b9a2ed5	0.00470529
6	0x3c996d82	0.018728975
7	0xbd43de5a	-0.047819473
8	0x3dc1f4ca	0.09470518
9	0x3c285364	0.010273788
10	0x3d3fc695	0.046820242
11	0x3d4fcd12	0.05073268
12	0x3d645d8e	0.055753283
13	0x3d96e6b4	0.07368222
14	0xbdabb3bb	-0.0838389
15	0x3d6a2946	0.057168268

tcn.network.0.net.0.weight f4 [16, 1, 5]
0	0xbeea8ab5	-0.4580895
1	0x3cbb03f0	0.022829026
2	0xbe8fd760	-0.28094006
3	0xbcdec353	-0.027192747
4	0x3db69ca5	0.08916596
5	0x3e9b1d6e	0.3029589
6	0xbebae0aa	-0.3649953
7	0x3e089048	0.13336289
8	0xbeb77e1e	-0.35838407
9	0x3e967335	0.2938477
10	0x3e7b349d	0.24531789
11	0x3ea2ab86	0.31771487
12	0x3ede5bbc	0.43429363
13	0x3d88f8b7	0.066880636
14	0xbed54f1e	-0.41661924
15	0xbe8d0622	-0.2754374
16	0xbd82e69a	-0.0639164
17	0xbd05e4fe	-0.032689087
18	0xbd3de3a7	-0.046359684
19	0xbe8ade85	-0.27122894
20	0x3dfe2f9f	0.12411427
21	0xbed61fe0	-0.41821194
22	0x3e080388	0.13282597
23	0xbea378c0	-0.31928062
24	0x3ecb731f	0.39736268
25	0x3eb51048	0.35363984
26	0x3eab1e3a	0.334215
27	0x3e3f4d80	0.18681908
28	0xbeaf06da	-0.34184915
29	0xbefb8a89	-0.4912913
30	0xbdbe497b	-0.09291359
31	0x3e74f8f9	0.239231
32	0xbd6b5f00	-0.057463646
33	0x3cd67302	0.026177887
34	0x3e807c6d	0.2509493
35	0x3eb822ac	0.35963953
36	0x3e1a10b7	0.15045439
37	0x3e8729f3	0.26399192
38	0x3e188d22	0.14897588
39	0xbeba9f32	-0.3644958
40	0x3eabb8eb	0.3353952
41	0x3d822960	0.06355548
42	0x3ebc1b13	0.36739406
43	0x3ecaed1e	0.3963403
44	0xbe05b4cb	-0.13057248
45	0xbeac6368	-0.3366959
46	0x3eca5c13	0.39523372
47	0x3ea03ae2	0.31294924
48	0xbe8a7005	-0.2703859
49	0x3e6bd954	0.23032123
50	0xbd3598ec	-0.04433529
51	0x3d7c9cc6	0.06167295
52	0x3da4faa8	0.080556214
53	0x3ebbbe4b	0.3666862
54	0xbebe596c	-0.37177598
55	0x3ec47e92	0.38377815
56	0x3cac1286	0.021004926
57	0x3d014fb3	0.031570148
58	0xbe9d4710	-0.3071828
59	0xbe8052bb	-0.25063118
60	0xbebb2f37	-0.3655946
61	0x3e100a01	0.14066316
62	0x3ec951fd	0.39320365
63	0x3eb4d247	0.3531668
64	0x3ed1145f	0.40835854
65	0xbea02d55	-0.31284586
66	0x3e3d9c0b	0.18516557
67	0xbe7ec967	-0.24881516
68	0xbe201964	-0.15634686
69	0xbe48cb92	-0.19608906
70	0xbe3a828b	-0.1821386
71	0x3dcf712a	0.10129006
72	0x3dd64d7d	0.104639985
73	0x3ec4f49a	0.38467866
74	0xbe4c74d1	-0.19966437
75	0xbe0ee720	-0.13955355
76	0xbe4ef904	-0.2021218
77	0xbefe38b8	-0.49652648
78	0x3e529f12	0.20568493
79	0x3ed5bb11	0.41744283

tcn.network.0.net.0.bias f4 [16]
0	0xbed2b8d6	-0.41156644
1	0x3dafc662	0.085827604
2	0xbea1f9a7	-0.31635782
3	0xbeb7f5f9	-0.3592985
4	0x3e120d77	0.14262949
5	0xbe9a788e	-0.301701
6	0xbe0e0d4c	-0.1387226
7	0xbec8ea0a	-0.39241058
8	0xbe03fa26	-0.12888393
9	0xbec4e2e1	-0.38454345
10	0xbe37a839	-0.17935266
11	0x3d43b372	0.047778554
12	0xbdc8ce1e	-0.09804939
13	0xbeb36cfa	-0.3504408
14	0xbeb7e87d	-0.35919562
15	0xbe85f2dd	-0.26161852

tcn.network.0.net.4.weight f4 [16, 16, 5]
0	0x3d6982ee	0.05700963
1	0x3ddbcdc1	0.10732604
2	0xbd85a78a	-0.06526096
3	0xbd04fe29	-0.03246895
4	0xbd8365fc	-0.06415936
5	0xbce27d5f	-0.027647672
6	0x3d4232ac	0.047411606
7	0xbd80ea12	-0.06294645
8	0x3dc5eb6a	0.09664042
9	0xbd4e090c	-0.050301597
10	0x3ca7d5d4	0.020487703
11	0xbdb713f1	-0.089393504
12	0xbde1b169	-0.110201664
13	0x3caf8686	0.02142645
14	0xbdd38c1a	-0.103294566
15	0xbd72adab	-0.059247654
16	0x3cc378d7	0.023861332
17	0x3cc33e21	0.023833336
18	0xbe6c90f8	-0.23102176
19	0xbdb2f887	-0.08738809
20	0x3d3fd17f	0.04683065
21	0x3d2da476	0.04239317
22	0xbd677a62	-0.056513198
23	0x3d056fa5	0.032577176
24	0xbdb39d71	-0.08770264
25	0xbc8e4038	-0.017364606
26	0xbd993cf4	-0.07482329
27	0xbd8ed178	-0.06973547
28	0xbc54d814	-0.01299097
29	0xbd17b5bd	-0.037038554
30	0x3c1349ff	0.00898981
31	0xbcb00228	-0.021485403
32	0xbb848b2f	-0.0040449123
33	0xbc9b1fed	-0.018936122
34	0xbc6ca67a	-0.014443988
35	0xbd64b6c8	-0.055838376
36	0xbd9023bb	-0.07038065
37	0xbe004405	-0.12525947
38	0x3d29cabc	0.04145311
39	0xbdcb0048	-0.09912163
40	0x3ce0d9cc	0.027447604
41	0x3defc8f5	0.117082514
42	0x3d80b5b0	0.06284654
43	0xbdc5e94f	-0.09663641
44	0xbd9e0201	-0.07715226
45	0xbcf05742	-0.029338483
46	0xbd83a85b	-0.06428596
47	0x3d0588b7	0.032601085
48	0x3db7a1b5	0.0896639
49	0xbb83a086	-0.0040169386
50	0xbc53e460	-0.012932867
51	0xbdc9c14a	-0.0985132
52	0x3d7e9b1f	0.062159654
53	0x3d970f8f	0.073760144
54	0x3dd56860	0.104202986
55	0x3dae8941	0.08522273
56	0x3cccb024	0.024986334
57	0xbe06c50a	-0.13161102
58	0xbb2bf3aa	-0.0026237764
59	0xbe89062f	-0.2676253
60	0x3d4ff924	0.05077471
61	0xbbcdd87a	-0.0062819095
62	0x3db1dff2	0.08685292
63	0xbce8879d	-0.028384978
64	0x3e0a519d	0.13507695
65	0xbda5fb70	-0.081045985
66	0xbb84423c	-0.004036216
67	0xbe266a45	-0.16251476
68	0xbde53d01	-0.11193276
69	0xbdc9db30	-0.0985626
70	0x3d87a090	0.06622422
71	0xbdef8956	-0.116961166
72	0x3d970057	0.07373112
73	0x3db07b74	0.08617297
74	0xbde31156	-0.11087291
75	0xbbecef7f	-0.0072306986
76	0x3e0e5f34	0.13903505
77	0x3d3a3ea6	0.045469902
78	0xbdb4c342	-0.08826305
79	0xbc83e8d6	-0.016102236
80	0x3bdf06d6	0.006806235
81	0x3d47cf03	0.048781406
82	0x3d80ca6b	0.06288608
83	0x3c89c330	0.016816705
84	0x3d9b538a	0.07584293
85	0x3d2eab24	0.04264368
86	0xbde8ca82	-0.1136675
87	0xbdc01827	-0.09379607
88	0xbcddff77	-0.027099354
89	0xbd5199ad	-0.051171947
90	0x3dc77c2e	0.09740482
91	0xbd95f8a6	-0.073228166
92	0x3c43e4ea	0.011956433
93	0x3d6343f5	0.05548473
94	0x3d897784	0.06712249
95	0x3dfad141	0.12246943
96	0x3c1c7242	0.009548726
97	0xbc873c44	-0.01650823
98	0x3d7577c1	0.05992866
99	0x3e02d419	0.12776221
100	0xbdddc4af	-0.1082853
101	0xbd74bc23	-0.059749734
102	0x3d26231a	0.04056082
103	0xbdebec27	-0.11519652
104	0x3b5f2c5d	0.0034053542
105	0xbc791efe	-0.015205143
106	0xbd381cce	-0.044949345
107	0x3dca6e6e	0.09884344
108	0xbd50c28d	-0.050966788
109	0xbd6498ec	-0.0558099
110	0x3d89b77c	0.0672445
111	0x3d6fe19a	0.05856476
112	0xbd9da1e1	-0.076968916
113	0x3dcff6a2	0.10154463
114	0x3c405b2c	0.011740487
115	0x3db38755	0.08766047
116	0x3d86a7dc	0.065749854
117	0xbcfe0d5a	-0.031012226
118	0x3d3efeda	0.046629764
119	0xbcce0d45	-0.025152812
120	0xbddff165	-0.10934714
121	0x3d9c9415	0.07645432
122	0x3cf6170a	0.030040283
123	0xbc58c183	-0.013229731
124	0x3be33cbf	0.0069347317
125	0x3de80c82	0.11330511
126	0x3e0e614a	0.139043
127	0xbd0ef79c	-0.034904107
128	0x3d963943	0.073351406
129	0x3de2b0a1	0.110688455
130	0x3da3a152	0.07989754
131	0xbc819777	-0.015819294
132	0x3ccd28b8	0.02504383
133	0x3ba92c10	0.0051627234
134	0xbd9bf1f3	-0.076145075
135	0x3d09909a	0.03358517
136	0xbdb5888a	-0.088639334
137	0x3b188e52	0.002327819
138	0x3dfc70c6	0.12326197
139	0xbc367c43	-0.011138025
140	0x3d2d86fd	0.042365063
141	0x3d87ed9b	0.066371165
142	0x3d1b29b0	0.037881553
143	0xbb2fd8fa	-0.002683221
144	0xbd1f5223	-0.03889669
145	0x3bd3bedc	0.006461961
146	0xbc62addd	-0.013835398
147	0x3dfeaf78	0.12435812
148	0x3d489a75	0.048975427
149	0x3cf726e8	0.03016992
150	0x3aeaaec2	0.0017904865
151	0x3e04b46f	0.12959455
152	0x3d8562b1	0.065129645
153	0x3ccba49c	0.024858765
154	0xbd1e471e	-0.03864204
155	0xbcacc2ea	-0.021089036
156	0xbd801076	-0.0625314
157	0xbcd4ad2e	-0.025961485
158	0xbd018594	-0.03162153
159	0x3d76e4f3	0.060276937
160	0x3d4c0625	0.049810547
161	0xbc6bbead	-0.014388722
162	0xbdaae1d0	-0.083438516
163	0xbe300a23	-0.17191367
164	0xbde4c998	-0.111712635
165	0xbd89f355	-0.06735865
166	0x3c87efc1	0.016593816
167	0xbbf43c72	-0.0074534947
168	0x3e1a26a9	0.1505381
169	0xbe06196d	-0.13095637
170	0xbd7732a0	-0.060351014
171	0xbcb95c54	-0.022627033
172	0xbd24ff4f	-0.040282544
173	0xbd942da6	-0.07235269
174	0xbdc81e95	-0.09771458
175	0x3ce557c5	0.027995953
176	0x3d6b5f3d	0.057463873
177	0x3d455506	0.048176788
178	0x3ce81bab	0.028333506
179	0x3b824430	0.0039754137
180	0x3c4f86fa	0.012666458
181	0x3cfeec54	0.03111855
182	0xbc9ba0ab	-0.01899751
183	0x3c4764f3	0.012170064
184	0xbdbfd2df	-0.09366392
185	0x3cc9ae5f	0.02461928
186	0x3c884175	0.016632775
187	0x3d15597b	0.03646229
188	0xbd817e96	-0.063229725
189	0xbd3c33cb	-0.04594783
190	0x3c85f748	0.016353264
191	0x3c1fb135	0.009746839
192	0xbd812893	-0.06306567
193	0xbc777414	-0.015103359
194	0x3b4b9b6f	0.0031067987
195	0x3c387b19	0.0112598175
196	0xbdcf97f8	-0.101364076
197	0xbda2cc95	-0.07949177
198	0xbe144d03	-0.14482503
199	0xbdc0f8af	-0.09422433
200	0xbc071257	-0.008244119
201	0xbd1d8745	-0.03845908
202	0x3c15fe41	0.009154857
203	0xbcba01c8	-0.022705927
204	0x3d2f5349	0.042804036
205	0x3d67926f	0.056536134
206	0xbd501ad7	-0.050806846
207	0x3dd611f3	0.10452642
208	0x3dbfda4c	0.09367809
209	0x3c80e9a3	0.015736407
210	0xbd92f2cd	-0.07175217
211	0x3d2667a5	0.040626187
212	0xbc35b24b	-0.011089872
213	0xbdac1136	-0.0840172
214	0xbcbfc63a	-0.023409951
215	0x3ba1da1b	0.0049393303
216	0xbda76938	-0.08174366
217	0xbdb21b30	-0.08696592
218	0xbe03027f	-0.12793921
219	0x3ccc0017	0.024902387
220	0x3d6192fa	0.05507181
221	0xbd5ce485	-0.05392887
222	0xbc1c7810	-0.0095501095
223	0xbd416e25	-0.047224183
224	0x3e12159d	0.14266057
225	0x3d2eaaa5	0.042643208
226	0xbbff17b6	-0.007784809
227	0xbd053e03	-0.032529842
228	0xbd8814a8	-0.06644565
229	0x3cca9ba5	0.02473242
230	0xbe2c7466	-0.16841277
231	0xbd4a96f5	-0.04946037
232	0xbe0feb34	-0.14054567
233	0xbe233d9c	-0.15941471
234	0xbdfd6242	-0.12372257
235	0x3e0f789b	0.14010851
236	0xbbfdc48c	-0.0077443775
237	0xbe15097b	-0.14554398
238	0xbb8a81a1	-0.0042268788
239	0xbdd2a0a5	-0.10284547
240	0xbdab1952	-0.08354439
241	0xbcda2faa	-0.026634056
242	0xbd4c827c	-0.049929127
243	0x3cdd1733	0.026988601
244	0x3cbb24d5	0.022844711
245	0x3da74e5a	0.08169241
246	0xbd9033a1	-0.070410974
247	0x3db33150	0.0874964
248	0x3b673866	0.0035281419
249	0x3d4b192a	0.049584545
250	0x3b977d3e	0.0046230843
251	0x3dc41eaf	0.09576165
252	0x3dbd93ba	0.09256692
253	0x3dc1d345	0.094641246
254	0x3e074469	0.1320969
255	0xbc38d9bc	-0.011282381

tcn.network.0.net.4.bias f4 [16]
0	0xbc25423a	-0.01008659
1	0x3d240b83	0.04005004
2	0x3daff060	0.0859077
3	0xbd84fc44	-0.06493428
4	0xbd4904c6	-0.049076818
5	0x3b9a2ed5	0.00470529
6	0x3c996d82	0.018728975
7	0xbd43de5a	-0.047819473
8	0x3dc1f4ca	0.09470518
9	0x3c285364	0.010273788
10	0x3d3fc695	0.046820242
11	0x3d4fcd12	0.05073268
12	0x3d645d8e	0.055753283
13	0x3d96e6b4	0.07368222
14	0xbdabb3bb	-0.0838389
15	0x3d6a2946	0.057168268

tcn.network.0.downsample.weight f4 [16, 1, 1]
0	0x3f744494	0.9541714
1	0xbf51e554	-0.8199055
2	0x3d18bdae	0.037290268
3	0x3f811d7d	1.0087124
4	0x3f46f66a	0.7771975
5	0xbe99f61c	-0.3007058
6	0x3ed0a512	0.4075094
7	0x3eb63ba1	0.35592368
8	0xbe0de968	-0.13858569
9	0x3eea8c1e	0.45810026
10	0x3f39004d	0.72266084
11	0x3f0f2e37	0.55929893
12	0x3f8281f1	1.0195905
13	0xbe827403	-0.25479135
14	0x3e2cfee3	0.16894107
15	0xbf7a803c	-0.9785192

tcn.network.0.downsample.bias f4 [16]
0	0x3f140e7a	0.5783459
1	0xbe7cc80f	-0.24685691
2	0x3d24993c	0.0401852
3	0x3ef50b11	0.47860005
4	0xbf07531e	-0.528612
5	0x3d054efa	0.03254602
6	0x3f153a6f	0.5829229
7	0x3bd1572c	0.0063885655
8	0x3e9098e6	0.28241652
9	0x3e017036	0.12640461
10	0x3f2661d5	0.6499303
11	0x3e1dc86a	0.15408483
12	0x3f3c3e2d	0.7353237
13	0xbeb828f1	-0.35968736
14	0xbf81e11c	-1.0146823
15	0x3e6400b3	0.22265892

tcn.network.1.conv1.weight f4 [16, 16, 5]
0	0xbd8efaf7	-0.069814615
1	0x3d7ea1df	0.06216609
2	0x3c263a86	0.010145789
3	0x3ae9d5de	0.0017840227
4	0x3d4f5832	0.05062122
5	0x3dac931f	0.084264986
6	0x3d8c3ccd	0.06847534
7	0x3d7773c1	0.060413126
8	0xbd3c26da	-0.04593549
9	0x3da4125c	0.08011314
10	0xbdfb98b6	-0.12284987
11	0x3d9747cb	0.0738674
12	0x3d9b0235	0.0756878
13	0xbd55a67a	-0.052160718
14	0x3c60def0	0.013725027
15	0x3d978717	0.07398813
16	0xbd26f93f	-0.040765043
17	0xbdd64046	-0.10461478
18	0x3cbd7b85	0.023130188
19	0xbd6c005f	-0.05761754
20	0x3d7a20d1	0.061066452
21	0xbd36ca5c	-0.04462658
22	0x3cb2b958	0.021816894
23	0x3d4409ba	0.04786084
24	0x3c060dde	0.008182017
25	0xbc3e1a51	-0.011602954
26	0x3b5d19c6	0.0033737286
27	0xbb994b74	-0.004678184
28	0xbd1d7a8e	-0.038446955
29	0x3c62a9fd	0.013834474
30	0x3d85a000	0.06524658
31	0xbcb0bc16	-0.021574061
32	0x3d841f25	0.06451253
33	0x3dbfea73	0.093708895
34	0xbdc67ac7	-0.09691387
35	0xbd878b89	-0.06618411
36	0xbdfa8c23	-0.1223376
37	0xbc4b155c	-0.012395229
38	0xbdd81034	-0.105499655
39	0xbd8c2cf5	-0.068445124
40	0xbd7ce2c1	-0.061739687
41	0xbccddcdc	-0.025129728
42	0x3db618b3	0.0889143
43	0xbd15a4f5	-0.03653427
44	0xbd6fee5a	-0.05857692
45	0x3d12a5d0	0.035802662
46	0xbd326f9a	-0.043563463
47	0xbdd11d4f	-0.10210668
48	0xbdac9a82	-0.084279075
49	0xbcc97c6f	-0.024595467
50	0xbd9574a5	-0.07297639
51	0xbcfdece1	-0.030996742
52	0x3cc00788	0.023441091
53	0x3d65e15f	0.056123134
54	0xbd998320	-0.07495713
55	0xbdaee687	-0.08540063
56	0x3b6babdd	0.0035960593
57	0xbdfbe23b	-0.122990094
58	0x3d57e9ab	0.052713078
59	0xbd88a9cd	-0.06673012
60	0x3d1dbdb9	0.03851101
61	0xbdfd9456	-0.123818085
62	0x3d8bcd85	0.06826309
63	0xbd697089	-0.056992088
64	0xbdeb539e	-0.11490558
65	0xbd5acea1	-0.053419713
66	0xbd3b853c	-0.04578136
67	0xbd9dd10d	-0.07705889
68	0xbd3dfe03	-0.046384823
69	0x3e04b972	0.12961367
70	0x3d06ea94	0.032938555
71	0x3e0916c1	0.13387586
72	0x3ca6c0a0	0.020355523
73	0xbd7da76e	-0.06192725
74	0xbd391e37	-0.04519483
75	0xbdc5b46b	-0.096535526
76	0x3d94be99	0.07262916
77	0xbd9af66e	-0.07566534
78	0xbda03102	-0.078218475
79	0xbd3ba9b6	-0.045816146
80	0x3c1a819f	0.009430318
81	0x3cdb5194	0.026772298
82	0x3c9e23ec	0.019304238
83	0x3b9826fb	0.0046433187
84	0x3d6fb23d	0.05851959
85	0xbcf5613c	-0.029953592
86	0x3d86c55b	0.06580611
87	0x3da7fcad	0.08202491
88	0x3d2b3350	0.041796982
89	0xbd0f8475	-0.03503843
90	0xbc6f4612	-0.014604108
91	0xbd9a9c39	-0.07549328
92	0xbc08f526	-0.008359229
93	0x3dccd10b	0.10000809
94	0x3d9b7337	0.07590335
95	0xbe12f93d	-0.1435289
96	0x3dd0b62d	0.10190997
97	0xbe2759b3	-0.16342811
98	0xbd271938	-0.040795535
99	0xbd8b905b	-0.06814643
100	0x3d7380cc	0.059449002
101	0x3e0e8e5a	0.1392149
102	0x3db17f7b	0.08666893
103	0x3dc9a566	0.098460004
104	0xbbac8ab4	-0.005265558
105	0x3db16db5	0.08663503
106	0x3d3fc045	0.046814222
107	0x3af7c346	0.00189028
108	0xbb82a077	-0.003986414
109	0x3c12069e	0.0089127105
110	0xbdf8b11b	-0.12143155
111	0x3dc1eba1	0.09468771
112	0xbd484964	-0.048898116
113	0xbe08d7a1	-0.13363506
114	0xbdd32597	-0.10309904
115	0xbc934b89	-0.017980354
116	0x3d919f73	0.07110491
117	0x3d9ae01b	0.07562276
118	0xbd830e1f	-0.06399178
119	0x3d0d4214	0.034486845
120	0xbd0d9ddb	-0.03457437
121	0x3db803eb	0.08985122
122	0x3d089ec4	0.033354536
123	0x3dbdc111	0.0926534
124	0xbdd127cf	-0.10212671
125	0xbe1244a0	-0.14283991
126	0xbcc228e5	-0.02370114
127	0xbe29192c	-0.16513509
128	0x3dde3df1	0.10851658
129	0xbdfbd11d	-0.122957446
130	0x3db0986c	0.08622822
131	0xbda824e7	-0.082101636
132	0xbe08ed28	-0.13371718
133	0xbe025412	-0.12727383
134	0xbe1de337	-0.15418707
135	0xbd591cd3	-0.053006005
136	0x3dcb6219	0.0993082
137	0xbe198df4	-0.14995557
138	0x3ca25304	0.019814976
139	0xbdb2caa0	-0.08730054
140	0xbdda2948	-0.10652405
141	0x3daca2d0	0.084294915
142	0xbe2775b2	-0.16353491
143	0xbe385e4f	-0.18004726
144	0xbb2ca511	-0.0026343504
145	0xbda2a727	-0.07942038
146	0x3c1559d8	0.009115659
147	0x3d0e71f9	0.03477666
148	0xbe26f96e	-0.16306087
149	0x3d182f53	0.037154507
150	0xbccd43a0	-0.02505666
151	0x3d0d7cbd	0.034542788
152	0x3d7e5695	0.06209429
153	0xbddfe993	-0.109332226
154	0x3db9c208	0.09070212
155	0x3da8f08b	0.08249005
156	0xbc6a0bba	-0.014285022
157	0xbd5baba9	-0.053630505
158	0x3d4b9d67	0.049710657
159	0xbadc4822	-0.0016806165
160	0x3d09a143	0.033601057
161	0xbdbf29bb	-0.09334131
162	0xbc791982	-0.015203835
163	0x3d03b232	0.032152362
164	0x3dc56426	0.096382424
165	0x3a6f92f7	0.0009139026
166	0x3de4b41f	0.11167168
167	0xbc10880a	-0.008821497
168	0x39a8b4e3	0.00032178228
169	0x3def4a87	0.11684137
170	0xbdc7e02a	-0.09759553
171	0xbda4ee4b	-0.08053263
172	0x3cd7200e	0.026260402
173	0xbd0ca550	-0.03433734
174	0xbd66bb6e	-0.05633109
175	0x3d91dce1	0.071222074
176	0xbbb2cdd5	-0.005456666
177	0xbd037b5f	-0.032100078
178	0xbac2c8dd	-0.0014860887
179	0xbd801a71	-0.06255043
180	0xbd55b54b	-0.052174848
181	0x3d21f57a	0.039540745
182	0x3d6e6143	0.058198225
183	0x3dd3918b	0.103304945
184	0x3d37543e	0.044758074
185	0x3cffb3d4	0.031213678
186	0xbd91647a	-0.070992425
187	0x3b98678f	0.004651017
188	0x3db70665	0.089367665
189	0xbd482d57	-0.048871364
190	0xbc071186	-0.008243924
191	0x3bb584fe	0.0055395355
192	0x3d87fa6f	0.06639563
193	0xbd3710a7	-0.044693615
194	0xbe0fa8af	-0.14029191
195	0x3d56bf3e	0.052428477
196	0xbd0c2f55	-0.034224827
197	0xbde35407	-0.11100011
198	0xbda99bc5	-0.08281664
199	0xbc0d242a	-0.008614579
200	0x3c0d15e4	0.008611176
201	0xbcf1f9c4	-0.029538043
202	0x3d24b7c9	0.040214334
203	0x3c43110f	0.011905923
204	0xbc81be0d	-0.015837694
205	0xbc13b84d	-0.009016109
206	0x3c2ddcac	0.010611694
207	0x3d75f5d5	0.060048897
208	0x3dc598da	0.09648295
209	0xbd871e8e	-0.06597625
210	0xbdc9204c	-0.09820613
211	0xbdfd3056	-0.12362735
212	0xbdc75ac8	-0.09734112
213	0x3ceb29b1	0.028706403
214	0x3abfc1ea	0.0014629934
215	0x3c38d7bb	0.011281903
216	0x3d8f2549	0.069895335
217	0xbd323f55	-0.04351743
218	0x3d98059d	0.07422946
219	0xbd65c28f	-0.05609375
220	0xbcd9d114	-0.026588954
221	0xbde7dad7	-0.11321037
222	0xbd132cf4	-0.035931543
223	0x3da20325	0.07910756
224	0x3d5d260f	0.053991374
225	0xbd2a09e8	-0.041513354
226	0x3dc05dad	0.09392867
227	0xbd023091	-0.031784598
228	0x3d7b928e	0.061419062
229	0x3da4a117	0.08038538
230	0x3cd2ad8f	0.025717525
231	0x3d4b625e	0.049654357
232	0xbdb33af6	-0.0875148
233	0x3c98ac0d	0.018636728
234	0x3dd1b4e6	0.10239582
235	0x3d17d087	0.0370641
236	0xbd8ac462	-0.06775738
237	0xbcbe7f6a	-0.023254115
238	0x3dba0e0d	0.09084711
239	0xbdd7bb01	-0.10533715
240	0x3d24042a	0.040043034
241	0xbd0f3f9b	-0.03497277
242	0xbdab14d8	-0.08353585
243	0x3c6d2725	0.014474665
244	0x3d10cf8d	0.035354186
245	0x3d33c530	0.043889225
246	0x3dc0094c	0.09376773
247	0x3ddfa3ab	0.10919889
248	0x3e052550	0.13002515
249	0xbe05968b	-0.13045709
250	0x3c3c9677	0.011510483
251	0x3c998452	0.018739853
252	0x3dc073f2	0.09397115
253	0xbe115334	-0.14191896
254	0xbd02867d	-0.03186654
255	0x3d048c8e	0.032360606

tcn.network.1.conv1.bias f4 [16]
0	0x3cecdc05	0.028913507
1	0x3da08116	0.07837121
2	0xbdbf2622	-0.09333445
3	0xbcf9f358	-0.030511543
4	0x3d0620bb	0.032746058
5	0x3cdd7278	0.027032122
6	0xbdb88ac2	-0.09010841
7	0x3d3eb619	0.04656038
8	0xbc4313be	-0.011906562
9	0x3dca8444	0.09888509
10	0xbdaef92a	-0.08543618
11	0xbdceed17	-0.10103815
12	0xbd8fecab	-0.07027563
13	0x3ddefffb	0.10888668
14	0xbdda9622	-0.10673167
15	0x3daa2115	0.08307091

tcn.network.1.conv2.weight f4 [16, 16, 5]
0	0x3e0929ce	0.13394853
1	0xbdb5c6ac	-0.08875784
2	0x3cf8c50e	0.0303674
3	0x3d09a406	0.03360369
4	0x3d8a3330	0.067480445
5	0x3d4e7486	0.050404094
6	0x3d9ce979	0.07661719
7	0x3ccbac4c	0.024862431
8	0xbdc69957	-0.09697216
9	0xbca25c9a	-0.019819546
10	0x3dd7c102	0.1053486
11	0x3c0dd9e1	0.008657903
12	0xbd50bdf9	-0.050962422
13	0xbc0fb81b	-0.0087719215
14	0xbdd84de4	-0.105617315
15	0xbc79b633	-0.015241194
16	0xbd94778a	-0.07249363
17	0x3d009059	0.03138766
18	0x3d162fb2	0.03666658
19	0xbe3d5bed	-0.18492098
20	0xbda61f43	-0.081114314
21	0x3d370bfa	0.044689156
22	0xbdecd2f8	-0.115636766
23	0xbc960672	-0.01831362
24	0x3c3eaa92	0.011637347
25	0x3cd002f4	0.025392033
26	0xbd377266	-0.044786833
27	0xbd9fb9d6	-0.07799117
28	0x3b4ea1bb	0.0031529504
29	0x3deaa185	0.11456589
30	0xbd9a50c2	-0.075349346
31	0xbd72b1ec	-0.05925171
32	0x3d6a0f22	0.057143338
33	0x3d83664e	0.064159974
34	0x3dd7cb12	0.105367795
35	0xbd4d36f6	-0.050101243
36	0xbd9c643a	-0.07636304
37	0x3dad77e2	0.084701315
38	0xbb82734e	-0.0039810305
39	0x3d994c7d	0.07485292
40	0x3dd779cf	0.1052128
41	0xbdf53c04	-0.11974338
42	0xbe02068d	-0.12697811
43	0xbdce248b	-0.10065564
44	0xbd1a228f	-0.037630614
45	0xbda6dec1	-0.08147956
46	0xbd539f99	-0.051665876
47	0xbd344136	-0.044007502
48	0xbe1f9709	-0.15584959
49	0xbc9463ff	-0.018114088
50	0xbcd059fa	-0.02543353
51	0x3ddce420	0.10785699
52	0xbd8d6518	-0.06904048
53	0xbd13801e	-0.036010854
54	0x3dd87037	0.10568278
55	0x3d877aa0	0.06615186
56	0xbcc3de17	-0.023909612
57	0x3d5f7779	0.054557297
58	0xbd41bc81	-0.047298912
59	0x3dfb95df	0.12284445
60	0x3d451c89	0.048122916
61	0x3ca7c0b0	0.020477623
62	0xbddb93e4	-0.10721567
63	0x3deb63b4	0.11493626
64	0xbdb022d0	-0.0860039
65	0x3ce14e89	0.027503269
66	0x3da68d63	0.08132436
67	0x3dc13fb2	0.09435977
68	0x3d881720	0.06645036
69	0xbd446d27	-0.04795566
70	0xbced0581	-0.028933289
71	0xbd9683dd	-0.0734937
72	0xbdd1d0b1	-0.10244883
73	0xbca49131	-0.020088764
74	0x3ddf15f0	0.10892856
75	0x3d8b0ff2	0.06790151
76	0x3d2283ff	0.039676663
77	0xbd0253f5	-0.03181835
78	0x3d5eec96	0.054424845
79	0x3d1a7ee9	0.037718687
80	0x3dad4a2c	0.08461413
81	0xbdc0cd1e	-0.09414123
82	0xbcd8bbf9	-0.02645682
83	0x3d4ffc71	0.050777856
84	0x3d684869	0.05670968
85	0x3c35e848	0.011102743
86	0x3d5c3ec6	0.053770803
87	0x3dea37a0	0.11436391
88	0xbcdb230b	-0.026750108
89	0x3e1fe1ee	0.15613529
90	0xbdc2c189	-0.0950957
91	0xbd59a915	-0.053139765
92	0xbdd5a24e	-0.10431348
93	0x3d26d890	0.040733874
94	0x3d56fad6	0.05248531
95	0xbd727fd9	-0.059203956
96	0xbd5cc62f	-0.05389994
97	0xbd078c7c	-0.03309296
98	0xbd800aad	-0.06252036
99	0x3e290016	0.16503939
100	0x3d6af570	0.057362974
101	0x3e0c11a6	0.13678607
102	0x3cbebf93	0.02328471
103	0x3d71dcb1	0.05904836
104	0x3cf5d5e1	0.030009212
105	0x3d525d91	0.051358763
106	0xbde552fd	-0.111974694
107	0xbdecbd48	-0.1155954
108	0xbd93a6a5	-0.07209519
109	0xbe030877	-0.12796198
110	0x3d287cba	0.041134574
111	0x3c349c9b	0.011023666
112	0xbcc00ff2	-0.023445103
113	0xbd428985	-0.04749443
114	0xbdebcec2	-0.11514045
115	0x3dac5b0f	0.084158055
116	0xbc8c63f4	-0.017137505
117	0x3d4fd8c6	0.05074384
118	0x3dd96081	0.1061411
119	0xbd382d79	-0.04496524
120	0xbdd2be95	-0.10290257
121	0xbceb3c1a	-0.028715182
122	0xbca9c82b	-0.02072533
123	0x3d5f8246	0.054567598
124	0x3d8f0f46	0.06985335
125	0xbb4b152f	-0.0030987968
126	0x3d6c2eaf	0.05766171
127	0xbcabc85e	-0.020969566
128	0x3cd4af41	0.025962474
129	0x3ca8109f	0.020515738
130	0x3d144b18	0.036204427
131	0x3dc9d6b3	0.09855404
132	0xbd82ee96	-0.06393163
133	0x3da74ee0	0.08169341
134	0xbd28f84f	-0.04125243
135	0x3d29f990	0.041497767
136	0x3d407b4a	0.046992578
137	0xbd9ccbb2	-0.07656039
138	0xbc267c6c	-0.0101615
139	0xbd3dc0e9	-0.04632655
140	0x392c6fa6	0.0001644479
141	0x3d321fd3	0.04348738
142	0x3d67d510	0.056599677
143	0xbe1ad845	-0.15121563
144	0xbdcb4321	-0.09924913
145	0x3bf7cc57	0.007562201
146	0x3b3bd820	0.0028662756
147	0xbdcd1c15	-0.10015122
148	0xbdaa94ea	-0.08329184
149	0xbd7c7b25	-0.061640877
150	0x3dd935fe	0.10606001
151	0xbc259cc0	-0.010108173
152	0x3de36d7f	0.11104869
153	0x3daac0f8	0.08337587
154	0x3d8fd030	0.070221305
155	0xbbca307c	-0.0061703306
156	0x3d3ce347	0.046115186
157	0x3d9f083c	0.077652425
158	0xbcda1cbe	-0.026625033
159	0x3c24c0f5	0.01005577
160	0xbd013d22	-0.03155244
161	0x3c0950bd	0.008381066
162	0xbd4e2035	-0.050323684
163	0x3d32ce7e	0.043653958
164	0x3d03e9fb	0.032205563
165	0x3db41883	0.08793738
166	0x3c650c61	0.013980002
167	0x3b01e7fb	0.001982211
168	0xbd0bc223	-0.03412069
169	0xbe10fa94	-0.14158088
170	0x3dd49b0f	0.103811376
171	0xbcb9097b	-0.022587528
172	0x3df40a49	0.11916024
173	0xbdb1bfcf	-0.08679163
174	0xbda7feee	-0.08202921
175	0x3db6ca80	0.089253426
176	0x3d425ea5	0.04745354
177	0xbda64bb0	-0.08119905
178	0x3d9bf6dc	0.07615444
179	0xbd1682f2	-0.036745973
180	0xbc34f1cd	-0.011043978
181	0xbd11f0e7	-0.035630133
182	0x3ce0d08c	0.027443193
183	0x3d74b128	0.059739262
184	0x3d3904e5	0.045170683
185	0x3d89da5c	0.06731102
186	0x3d98f5ca	0.074687555
187	0x3d17330e	0.036913924
188	0xbda1a388	-0.07892519
189	0xbd80e1a1	-0.06293035
190	0xbd354072	-0.044250913
191	0x3bb480f4	0.0055085365
192	0xbc446e1b	-0.011989142
193	0xbc953cbf	-0.018217443
194	0x3c298a2d	0.010347885
195	0x3d505969	0.05086652
196	0x3d93832b	0.07202753
197	0x3daf0bee	0.08547197
198	0xbd569018	-0.052383512
199	0x3d0d756c	0.03453581
200	0xbdb3af86	-0.08773713
201	0x3d047f78	0.032348126
202	0x3aac05d7	0.0013124299
203	0xbdd2d3f4	-0.10294333
204	0xbd168d3c	-0.036755785
205	0xbc833a8f	-0.016019134
206	0xbe14c518	-0.1452831
207	0xbdb89bec	-0.09014115
208	0x3d26d8fe	0.040734284
209	0xba5d884b	-0.000845079
210	0xbd8b3b72	-0.06798448
211	0x3d034a5f	0.032053348
212	0xbd0e080b	-0.03467564
213	0xbd8b8583	-0.06812575
214	0x3d259749	0.04042748
215	0x3d1a9c3d	0.037746657
216	0x3dafbd47	0.08581024
217	0x3db42342	0.087957874
218	0x3cd2a6e1	0.02571434
219	0xbd80282e	-0.06257664
220	0x3daa96c5	0.08329538
221	0xbc804e5d	-0.015662367
222	0x3df42e82	0.11922933
223	0xbcdb52b4	-0.026772834
224	0x3d55ef81	0.05223036
225	0x3dac4364	0.08411291
226	0x3e2e74dc	0.17036766
227	0x3c36609b	0.011131431
228	0xbd426993	-0.047463965
229	0xbd71d208	-0.059038192
230	0x3dbf5780	0.09342861
231	0x3cae4047	0.021270884
232	0x3cbaf9c3	0.022824174
233	0xbd7208d9	-0.05909047
234	0x3da0c986	0.078509375
235	0xbc30feaa	-0.010802904
236	0xbd39813a	-0.045289256
237	0xbd918564	-0.0710552
238	0xbd7c37c7	-0.06157663
239	0x3ae77384	0.0017658328
240	0x3c7ec323	0.015549454
241	0x3db06247	0.08612495
242	0xbd709e4d	-0.058744717
243	0xbd25adbb	-0.040448885
244	0xbd7567ba	-0.059913374
245	0xbd8044bb	-0.06263109
246	0xbd9b2983	-0.07576277
247	0xbccb0856	-0.024784248
248	0xbda4dfb8	-0.080504835
249	0xba41f66b	-0.0007399085
250	0xbd929765	-0.071577825
251	0xbcd0dd1d	-0.02549606
252	0xbd259bf1	-0.04043192
253	0xbc6f489c	-0.014604714
254	0x3da78586	0.081797644
255	0x3db156fe	0.086591706

tcn.network.1.conv2.bias f4 [16]
0	0xbc02a9d2	-0.007975059
1	0x3d9426d0	0.072339654
2	0xbc7b8d15	-0.015353461
3	0x3d370066	0.044678114
4	0x3d195da5	0.037442822
5	0x3b605c9d	0.003423489
6	0xbd990f29	-0.07473595
7	0x3c1ab560	0.009442657
8	0xbc72f25f	-0.014828294
9	0x3c8faf1e	0.017539557
10	0x3da39630	0.0798763
11	0x3d09e827	0.033668663
12	0x3d6e9916	0.058251463
13	0xbdea3743	-0.114363216
14	0xbb68612d	-0.0035458312
15	0xbd8b292b	-0.067949615

tcn.network.1.net.0.weight f4 [16, 16, 5]
0	0xbd8efaf7	-0.069814615
1	0x3d7ea1df	0.06216609
2	0x3c263a86	0.010145789
3	0x3ae9d5de	0.0017840227
4	0x3d4f5832	0.05062122
5	0x3dac931f	0.084264986
6	0x3d8c3ccd	0.06847534
7	0x3d7773c1	0.060413126
8	0xbd3c26da	-0.04593549
9	0x3da4125c	0.08011314
10	0xbdfb98b6	-0.12284987
11	0x3d9747cb	0.0738674
12	0x3d9b0235	0.0756878
13	0xbd55a67a	-0.052160718
14	0x3c60def0	0.013725027
15	0x3d978717	0.07398813
16	0xbd26f93f	-0.040765043
17	0xbdd64046	-0.10461478
18	0x3cbd7b85	0.023130188
19	0xbd6c005f	-0.05761754
20	0x3d7a20d1	0.061066452
21	0xbd36ca5c	-0.04462658
22	0x3cb2b958	0.021816894
23	0x3d4409ba	0.04786084
24	0x3c060dde	0.008182017
25	0xbc3e1a51	-0.011602954
26	0x3b5d19c6	0.0033737286
27	0xbb994b74	-0.004678184
28	0xbd1d7a8e	-0.038446955
29	0x3c62a9fd	0.013834474
30	0x3d85a000	0.06524658
31	0xbcb0bc16	-0.021574061
32	0x3d841f25	0.06451253
33	0x3dbfea73	0.093708895
34	0xbdc67ac7	-0.09691387
35	0xbd878b89	-0.06618411
36	0xbdfa8c23	-0.1223376
37	0xbc4b155c	-0.012395229
38	0xbdd81034	-0.105499655
39	0xbd8c2cf5	-0.068445124
40	0xbd7ce2c1	-0.061739687
41	0xbccddcdc	-0.025129728
42	0x3db618b3	0.0889143
43	0xbd15a4f5	-0.03653427
44	0xbd6fee5a	-0.05857692
45	0x3d12a5d0	0.035802662
46	0xbd326f9a	-0.043563463
47	0xbdd11d4f	-0.10210668
48	0xbdac9a82	-0.084279075
49	0xbcc97c6f	-0.024595467
50	0xbd9574a5	-0.07297639
51	0xbcfdece1	-0.030996742
52	0x3cc00788	0.023441091
53	0x3d65e15f	0.056123134
54	0xbd998320	-0.07495713
55	0xbdaee687	-0.08540063
56	0x3b6babdd	0.0035960593
57	0xbdfbe23b	-0.122990094
58	0x3d57e9ab	0.052713078
59	0xbd88a9cd	-0.06673012
60	0x3d1dbdb9	0.03851101
61	0xbdfd9456	-0.123818085
62	0x3d8bcd85	0.06826309
63	0xbd697089	-0.056992088
64	0xbdeb539e	-0.11490558
65	0xbd5acea1	-0.053419713
66	0xbd3b853c	-0.04578136
67	0xbd9dd10d	-0.07705889
68	0xbd3dfe03	-0.046384823
69	0x3e04b972	0.12961367
70	0x3d06ea94	0.032938555
71	0x3e0916c1	0.13387586
72	0x3ca6c0a0	0.020355523
73	0xbd7da76e	-0.06192725
74	0xbd391e37	-0.04519483
75	0xbdc5b46b	-0.096535526
76	0x3d94be99	0.07262916
77	0xbd9af66e	-0.07566534
78	0xbda03102	-0.078218475
79	0xbd3ba9b6	-0.045816146
80	0x3c1a819f	0.009430318
81	0x3cdb5194	0.026772298
82	0x3c9e23ec	0.019304238
83	0x3b9826fb	0.0046433187
84	0x3d6fb23d	0.05851959
85	0xbcf5613c	-0.029953592
86	0x3d86c55b	0.06580611
87	0x3da7fcad	0.08202491
88	0x3d2b3350	0.041796982
89	0xbd0f8475	-0.03503843
90	0xbc6f4612	-0.014604108
91	0xbd9a9c39	-0.07549328
92	0xbc08f526	-0.008359229
93	0x3dccd10b	0.10000809
94	0x3d9b7337	0.07590335
95	0xbe12f93d	-0.1435289
96	0x3dd0b62d	0.10190997
97	0xbe2759b3	-0.16342811
98	0xbd271938	-0.040795535
99	0xbd8b905b	-0.06814643
100	0x3d7380cc	0.059449002
101	0x3e0e8e5a	0.1392149
102	0x3db17f7b	0.08666893
103	0x3dc9a566	0.098460004
104	0xbbac8ab4	-0.005265558
105	0x3db16db5	0.08663503
106	0x3d3fc045	0.046814222
107	0x3af7c346	0.00189028
108	0xbb82a077	-0.003986414
109	0x3c12069e	0.0089127105
110	0xbdf8b11b	-0.12143155
111	0x3dc1eba1	0.09468771
112	0xbd484964	-0.048898116
113	0xbe08d7a1	-0.13363506
114	0xbdd32597	-0.10309904
115	0xbc934b89	-0.017980354
116	0x3d919f73	0.07110491
117	0x3d9ae01b	0.07562276
118	0xbd830e1f	-0.06399178
119	0x3d0d4214	0.034486845
120	0xbd0d9ddb	-0.03457437
121	0x3db803eb	0.08985122
122	0x3d089ec4	0.033354536
123	0x3dbdc111	0.0926534
124	0xbdd127cf	-0.10212671
125	0xbe1244a0	-0.14283991
126	0xbcc228e5	-0.02370114
127	0xbe29192c	-0.16513509
128	0x3dde3df1	0.10851658
129	0xbdfbd11d	-0.122957446
130	0x3db0986c	0.08622822
131	0xbda824e7	-0.082101636
132	0xbe08ed28	-0.13371718
133	0xbe025412	-0.12727383
134	0xbe1de337	-0.15418707
135	0xbd591cd3	-0.053006005
136	0x3dcb6219	0.0993082
137	0xbe198df4	-0.14995557
138	0x3ca25304	0.019814976
139	0xbdb2caa0	-0.08730054
140	0xbdda2948	-0.10652405
141	0x3daca2d0	0.084294915
142	0xbe2775b2	-0.16353491
143	0xbe385e4f	-0.18004726
144	0xbb2ca511	-0.0026343504
145	0xbda2a727	-0.07942038
146	0x3c1559d8	0.009115659
147	0x3d0e71f9	0.03477666
148	0xbe26f96e	-0.16306087
149	0x3d182f53	0.037154507
150	0xbccd43a0	-0.02505666
151	0x3d0d7cbd	0.034542788
152	0x3d7e5695	0.06209429
153	0xbddfe993	-0.109332226
154	0x3db9c208	0.09070212
155	0x3da8f08b	0.08249005
156	0xbc6a0bba	-0.014285022
157	0xbd5baba9	-0.053630505
158	0x3d4b9d67	0.049710657
159	0xbadc4822	-0.0016806165
160	0x3d09a143	0.033601057
161	0xbdbf29bb	-0.09334131
162	0xbc791982	-0.015203835
163	0x3d03b232	0.032152362
164	0x3dc56426	0.096382424
165	0x3a6f92f7	0.0009139026
166	0x3de4b41f	0.11167168
167	0xbc10880a	-0.008821497
168	0x39a8b4e3	0.00032178228
169	0x3def4a87	0.11684137
170	0xbdc7e02a	-0.09759553
171	0xbda4ee4b	-0.08053263
172	0x3cd7200e	0.026260402
173	0xbd0ca550	-0.03433734
174	0xbd66bb6e	-0.05633109
175	0x3d91dce1	0.071222074
176	0xbbb2cdd5	-0.005456666
177	0xbd037b5f	-0.032100078
178	0xbac2c8dd	-0.0014860887
179	0xbd801a71	-0.06255043
180	0xbd55b54b	-0.052174848
181	0x3d21f57a	0.039540745
182	0x3d6e6143	0.058198225
183	0x3dd3918b	0.103304945
184	0x3d37543e	0.044758074
185	0x3cffb3d4	0.031213678
186	0xbd91647a	-0.070992425
187	0x3b98678f	0.004651017
188	0x3db70665	0.089367665
189	0xbd482d57	-0.048871364
190	0xbc071186	-0.008243924
191	0x3bb584fe	0.0055395355
192	0x3d87fa6f	0.06639563
193	0xbd3710a7	-0.044693615
194	0xbe0fa8af	-0.14029191
195	0x3d56bf3e	0.052428477
196	0xbd0c2f55	-0.034224827
197	0xbde35407	-0.11100011
198	0xbda99bc5	-0.08281664
199	0xbc0d242a	-0.008614579
200	0x3c0d15e4	0.008611176
201	0xbcf1f9c4	-0.029538043
202	0x3d24b7c9	0.040214334
203	0x3c43110f	0.011905923
204	0xbc81be0d	-0.015837694
205	0xbc13b84d	-0.009016109
206	0x3c2ddcac	0.010611694
207	0x3d75f5d5	0.060048897
208	0x3dc598da	0.09648295
209	0xbd871e8e	-0.06597625
210	0xbdc9204c	-0.09820613
211	0xbdfd3056	-0.12362735
212	0xbdc75ac8	-0.09734112
213	0x3ceb29b1	0.028706403
214	0x3abfc1ea	0.0014629934
215	0x3c38d7bb	0.011281903
216	0x3d8f2549	0.069895335
217	0xbd323f55	-0.04351743
218	0x3d98059d	0.07422946
219	0xbd65c28f	-0.05609375
220	0xbcd9d114	-0.026588954
221	0xbde7dad7	-0.11321037
222	0xbd132cf4	-0.035931543
223	0x3da20325	0.07910756
224	0x3d5d260f	0.053991374
225	0xbd2a09e8	-0.041513354
226	0x3dc05dad	0.09392867
227	0xbd023091	-0.031784598
228	0x3d7b928e	0.061419062
229	0x3da4a117	0.08038538
230	0x3cd2ad8f	0.025717525
231	0x3d4b625e	0.049654357
232	0xbdb33af6	-0.0875148
233	0x3c98ac0d	0.018636728
234	0x3dd1b4e6	0.10239582
235	0x3d17d087	0.0370641
236	0xbd8ac462	-0.06775738
237	0xbcbe7f6a	-0.023254115
238	0x3dba0e0d	0.09084711
239	0xbdd7bb01	-0.10533715
240	0x3d24042a	0.040043034
241	0xbd0f3f9b	-0.03497277
242	0xbdab14d8	-0.08353585
243	0x3c6d2725	0.014474665
244	0x3d10cf8d	0.035354186
245	0x3d33c530	0.043889225
246	0x3dc0094c	0.09376773
247	0x3ddfa3ab	0.10919889
248	0x3e052550	0.13002515
249	0xbe05968b	-0.13045709
250	0x3c3c9677	0.011510483
251	0x3c998452	0.018739853
252	0x3dc073f2	0.09397115
253	0xbe115334	-0.14191896
254	0xbd02867d	-0.03186654
255	0x3d048c8e	0.032360606

tcn.network.1.net.0.bias f4 [16]
0	0x3cecdc05	0.028913507
1	0x3da08116	0.07837121
2	0xbdbf2622	-0.09333445
3	0xbcf9f358	-0.030511543
4	0x3d0620bb	0.032746058
5	0x3cdd7278	0.027032122
6	0xbdb88ac2	-0.09010841
7	0x3d3eb619	0.04656038
8	0xbc4313be	-0.011906562
9	0x3dca8444	0.09888509
10	0xbdaef92a	-0.08543618
11	0xbdceed17	-0.10103815
12	0xbd8fecab	-0.07027563
13	0x3ddefffb	0.10888668
14	0xbdda9622	-0.10673167
15	0x3daa2115	0.08307091

tcn.network.1.net.4.weight f4 [16, 16, 5]
0	0x3e0929ce	0.13394853
1	0xbdb5c6ac	-0.08875784
2	0x3cf8c50e	0.0303674
3	0x3d09a406	0.03360369
4	0x3d8a3330	0.067480445
5	0x3d4e7486	0.050404094
6	0x3d9ce979	0.07661719
7	0x3ccbac4c	0.024862431
8	0xbdc69957	-0.09697216
9	0xbca25c9a	-0.019819546
10	0x3dd7c102	0.1053486
11	0x3c0dd9e1	0.008657903
12	0xbd50bdf9	-0.050962422
13	0xbc0fb81b	-0.0087719215
14	0xbdd84de4	-0.105617315
15	0xbc79b633	-0.015241194
16	0xbd94778a	-0.07249363
17	0x3d009059	0.03138766
18	0x3d162fb2	0.03666658
19	0xbe3d5bed	-0.18492098
20	0xbda61f43	-0.081114314
21	0x3d370bfa	0.044689156
22	0xbdecd2f8	-0.115636766
23	0xbc960672	-0.01831362
24	0x3c3eaa92	0.011637347
25	0x3cd002f4	0.025392033
26	0xbd377266	-0.044786833
27	0xbd9fb9d6	-0.07799117
28	0x3b4ea1bb	0.0031529504
29	0x3deaa185	0.11456589
30	0xbd9a50c2	-0.075349346
31	0xbd72b1ec	-0.05925171
32	0x3d6a0f22	0.057143338
33	0x3d83664e	0.064159974
34	0x3dd7cb12	0.105367795
35	0xbd4d36f6	-0.050101243
36	0xbd9c643a	-0.07636304
37	0x3dad77e2	0.084701315
38	0xbb82734e	-0.0039810305
39	0x3d994c7d	0.07485292
40	0x3dd779cf	0.1052128
41	0xbdf53c04	-0.11974338
42	0xbe02068d	-0.12697811
43	0xbdce248b	-0.10065564
44	0xbd1a228f	-0.037630614
45	0xbda6dec1	-0.08147956
46	0xbd539f99	-0.051665876
47	0xbd344136	-0.044007502
48	0xbe1f9709	-0.15584959
49	0xbc9463ff	-0.018114088
50	0xbcd059fa	-0.02543353
51	0x3ddce420	0.10785699
52	0xbd8d6518	-0.06904048
53	0xbd13801e	-0.036010854
54	0x3dd87037	0.10568278
55	0x3d877aa0	0.06615186
56	0xbcc3de17	-0.023909612
57	0x3d5f7779	0.054557297
58	0xbd41bc81	-0.047298912
59	0x3dfb95df	0.12284445
60	0x3d451c89	0.048122916
61	0x3ca7c0b0	0.020477623
62	0xbddb93e4	-0.10721567
63	0x3deb63b4	0.11493626
64	0xbdb022d0	-0.0860039
65	0x3ce14e89	0.027503269
66	0x3da68d63	0.08132436
67	0x3dc13fb2	0.09435977
68	0x3d881720	0.06645036
69	0xbd446d27	-0.04795566
70	0xbced0581	-0.028933289
71	0xbd9683dd	-0.0734937
72	0xbdd1d0b1	-0.10244883
73	0xbca49131	-0.020088764
74	0x3ddf15f0	0.10892856
75	0x3d8b0ff2	0.06790151
76	0x3d2283ff	0.039676663
77	0xbd0253f5	-0.03181835
78	0x3d5eec96	0.054424845
79	0x3d1a7ee9	0.037718687
80	0x3dad4a2c	0.08461413
81	0xbdc0cd1e	-0.09414123
82	0xbcd8bbf9	-0.02645682
83	0x3d4ffc71	0.050777856
84	0x3d684869	0.05670968
85	0x3c35e848	0.011102743
86	0x3d5c3ec6	0.053770803
87	0x3dea37a0	0.11436391
88	0xbcdb230b	-0.026750108
89	0x3e1fe1ee	0.15613529
90	0xbdc2c189	-0.0950957
91	0xbd59a915	-0.053139765
92	0xbdd5a24e	-0.10431348
93	0x3d26d890	0.040733874
94	0x3d56fad6	0.05248531
95	0xbd727fd9	-0.059203956
96	0xbd5cc62f	-0.05389994
97	0xbd078c7c	-0.03309296
98	0xbd800aad	-0.06252036
99	0x3e290016	0.16503939
100	0x3d6af570	0.057362974
101	0x3e0c11a6	0.13678607
102	0x3cbebf93	0.02328471
103	0x3d71dcb1	0.05904836
104	0x3cf5d5e1	0.030009212
105	0x3d525d91	0.051358763
106	0xbde552fd	-0.111974694
107	0xbdecbd48	-0.1155954
108	0xbd93a6a5	-0.07209519
109	0xbe030877	-0.12796198
110	0x3d287cba	0.041134574
111	0x3c349c9b	0.011023666
112	0xbcc00ff2	-0.023445103
113	0xbd428985	-0.04749443
114	0xbdebcec2	-0.11514045
115	0x3dac5b0f	0.084158055
116	0xbc8c63f4	-0.017137505
117	0x3d4fd8c6	0.05074384
118	0x3dd96081	0.1061411
119	0xbd382d79	-0.04496524
120	0xbdd2be95	-0.10290257
121	0xbceb3c1a	-0.028715182
122	0xbca9c82b	-0.02072533
123	0x3d5f8246	0.054567598
124	0x3d8f0f46	0.06985335
125	0xbb4b152f	-0.0030987968
126	0x3d6c2eaf	0.05766171
127	0xbcabc85e	-0.020969566
128	0x3cd4af41	0.025962474
129	0x3ca8109f	0.020515738
130	0x3d144b18	0.036204427
131	0x3dc9d6b3	0.09855404
132	0xbd82ee96	-0.06393163
133	0x3da74ee0	0.08169341
134	0xbd28f84f	-0.04125243
135	0x3d29f990	0.041497767
136	0x3d407b4a	0.046992578
137	0xbd9ccbb2	-0.07656039
138	0xbc267c6c	-0.0101615
139	0xbd3dc0e9	-0.04632655
140	0x392c6fa6	0.0001644479
141	0x3d321fd3	0.04348738
142	0x3d67d510	0.056599677
143	0xbe1ad845	-0.15121563
144	0xbdcb4321	-0.09924913
145	0x3bf7cc57	0.007562201
146	0x3b3bd820	0.0028662756
147	0xbdcd1c15	-0.10015122
148	0xbdaa94ea	-0.08329184
149	0xbd7c7b25	-0.061640877
150	0x3dd935fe	0.10606001
151	0xbc259cc0	-0.010108173
152	0x3de36d7f	0.11104869
153	0x3daac0f8	0.08337587
154	0x3d8fd030	0.070221305
155	0xbbca307c	-0.0061703306
156	0x3d3ce347	0.046115186
157	0x3d9f083c	0.077652425
158	0xbcda1cbe	-0.026625033
159	0x3c24c0f5	0.01005577
160	0xbd013d22	-0.03155244
161	0x3c0950bd	0.008381066
162	0xbd4e2035	-0.050323684
163	0x3d32ce7e	0.043653958
164	0x3d03e9fb	0.032205563
165	0x3db41883	0.08793738
166	0x3c650c61	0.013980002
167	0x3b01e7fb	0.001982211
168	0xbd0bc223	-0.03412069
169	0xbe10fa94	-0.14158088
170	0x3dd49b0f	0.103811376
171	0xbcb9097b	-0.022587528
172	0x3df40a49	0.11916024
173	0xbdb1bfcf	-0.08679163
174	0xbda7feee	-0.08202921
175	0x3db6ca80	0.089253426
176	0x3d425ea5	0.04745354
177	0xbda64bb0	-0.08119905
178	0x3d9bf6dc	0.07615444
179	0xbd1682f2	-0.036745973
180	0xbc34f1cd	-0.011043978
181	0xbd11f0e7	-0.035630133
182	0x3ce0d08c	0.027443193
183	0x3d74b128	0.059739262
184	0x3d3904e5	0.045170683
185	0x3d89da5c	0.06731102
186	0x3d98f5ca	0.074687555
187	0x3d17330e	0.036913924
188	0xbda1a388	-0.07892519
189	0xbd80e1a1	-0.06293035
190	0xbd354072	-0.044250913
191	0x3bb480f4	0.0055085365
192	0xbc446e1b	-0.011989142
193	0xbc953cbf	-0.018217443
194	0x3c298a2d	0.010347885
195	0x3d505969	0.05086652
196	0x3d93832b	0.07202753
197	0x3daf0bee	0.08547197
198	0xbd569018	-0.052383512
199	0x3d0d756c	0.03453581
200	0xbdb3af86	-0.08773713
201	0x3d047f78	0.032348126
202	0x3aac05d7	0.0013124299
203	0xbdd2d3f4	-0.10294333
204	0xbd168d3c	-0.036755785
205	0xbc833a8f	-0.016019134
206	0xbe14c518	-0.1452831
207	0xbdb89bec	-0.09014115
208	0x3d26d8fe	0.040734284
209	0xba5d884b	-0.000845079
210	0xbd8b3b72	-0.06798448
211	0x3d034a5f	0.032053348
212	0xbd0e080b	-0.03467564
213	0xbd8b8583	-0.06812575
214	0x3d259749	0.04042748
215	0x3d1a9c3d	0.037746657
216	0x3dafbd47	0.08581024
217	0x3db42342	0.087957874
218	0x3cd2a6e1	0.02571434
219	0xbd80282e	-0.06257664
220	0x3daa96c5	0.08329538
221	0xbc804e5d	-0.015662367
222	0x3df42e82	0.11922933
223	0xbcdb52b4	-0.026772834
224	0x3d55ef81	0.05223036
225	0x3dac4364	0.08411291
226	0x3e2e74dc	0.17036766
227	0x3c36609b	0.011131431
228	0xbd426993	-0.047463965
229	0xbd71d208	-0.059038192
230	0x3dbf5780	0.09342861
231	0x3cae4047	0.021270884
232	0x3cbaf9c3	0.022824174
233	0xbd7208d9	-0.05909047
234	0x3da0c986	0.078509375
235	0xbc30feaa	-0.010802904
236	0xbd39813a	-0.045289256
237	0xbd918564	-0.0710552
238	0xbd7c37c7	-0.06157663
239	0x3ae77384	0.0017658328
240	0x3c7ec323	0.015549454
241	0x3db06247	0.08612495
242	0xbd709e4d	-0.058744717
243	0xbd25adbb	-0.040448885
244	0xbd7567ba	-0.059913374
245	0xbd8044bb	-0.06263109
246	0xbd9b2983	-0.07576277
247	0xbccb0856	-0.024784248
248	0xbda4dfb8	-0.080504835
249	0xba41f66b	-0.0007399085
250	0xbd929765	-0.071577825
251	0xbcd0dd1d	-0.02549606
252	0xbd259bf1	-0.04043192
253	0xbc6f489c	-0.014604714
254	0x3da78586	0.081797644
255	0x3db156fe	0.086591706

tcn.network.1.net.4.bias f4 [16]
0	0xbc02a9d2	-0.007975059
1	0x3d9426d0	0.072339654
2	0xbc7b8d15	-0.015353461
3	0x3d370066	0.044678114
4	0x3d195da5	0.037442822
5	0x3b605c9d	0.003423489
6	0xbd990f29	-0.07473595
7	0x3c1ab560	0.009442657
8	0xbc72f25f	-0.014828294
9	0x3c8faf1e	0.017539557
10	0x3da39630	0.0798763
11	0x3d09e827	0.033668663
12	0x3d6e9916	0.058251463
13	0xbdea3743	-0.114363216
14	0xbb68612d	-0.0035458312
15	0xbd8b292b	-0.067949615
